model1.tflite (tflite, 38508 bytes, 6 tensors)

sequential/dense_1/BiasAdd/ReadVariableOp f4 [64]
0.114208 0.38688138 0.044509374 0.32738966 0.07197505 0.16544533 0.271985 -0.107863635
0.23486869 0.23872462 0.18970609 -0.065225385 0.20069915 0.19926596 0.1770449 0.11279716
-0.037192397 0.38975927 0.19878475 0.095776804 0.40802023 0.056017704 0.09789303 0.2160064
0.05718544 0.07973931 -0.0019422453 0.029376555 0.1228596 0.26248288 0.18997432 0.17819297
0.18925457 0.21993199 0.29532024 0.06495415 0.32051325 0.26945135 0.3718007 0.14630878
-0.013056634 0.28859144 0.34047845 0.14525062 0.07337766 0.45617563 0.28955713 0.3976501
0.37944442 0.19567245 0.30540803 0.009545632 -0.020173473 0.15221244 0.08233894 0.30968705
0.37161568 0.27895075 0.17828126 0.19984064 0.27332172 0.5182037 0.17479396 0.057210393
00000000: e2e5 e93d 5115 c63e 764f 363d 9e9f a73e
00000010: a867 933d 806a 293e 9e41 8b3e 9ce7 dcbd
00000020: 6b81 703e 3a74 743e 5042 423e e394 85bd
00000030: 1484 4d3e 600c 4c3e 424b 353e 3302 e73d
00000040: 0e57 18bd 878e c73e 3b8e 4b3e a126 c43d
00000050: 07e8 d03e d272 653d 247c c83d c830 5d3e
00000060: 483b 6a3d 5d4e a33d f092 feba 1aa7 f03c
00000070: d09d fb3d 2864 863e a188 423e 3878 363e
00000080: f3cb 413e da35 613e 3734 973e ae06 853d
00000090: 501a a43e 87f5 893e a95c be3e f8d1 153e
000000a0: 7eeb 55bc 42c2 933e 3153 ae3e 94bc 143e
000000b0: 0747 963d da8f e93e d540 943e cb98 cb3e
000000c0: 8a46 c23e 5c5e 483e 715e 9c3e 4865 1c3c
000000d0: d742 a5bc 94dd 1b3e 51a1 a83d 4d8f 9e3e
000000e0: 6944 be3e a2d2 8e3e 5d8f 363e 06a3 4c3e
000000f0: d3f0 8b3e ffa8 043f 30fd 323e 7255 6a3d

sequential/dense_2/BiasAdd/ReadVariableOp f4 [16]
0.042240877 -0.16872789 -0.027031494 0.04796596 -0.0588839 -0.03732821 0.059789967 -0.22726977
0.0017702737 -0.06988866 -0.034703735 -0.040518172 0.17504485 0.10357371 -0.016989108 0.116619356
00000000: c504 2d3d 01c7 2cbe 2771 ddbc f477 443d
00000010: 3f30 71bd 77e5 18bd 53e6 743d 68b9 68be
00000020: 8708 e83a c921 8fbd 8125 0ebd 62f6 25bd
00000030: f53e 333e 741e d43d be2c 8bbc 21d6 ee3d

sequential/dense/BiasAdd/ReadVariableOp f4 [64]
-0.30593622 -0.38449216 -0.42612326 -0.580125 -0.5429189 -0.26802662 -0.18380578 -0.41753593
-0.64870065 -0.2395306 -0.23377664 -0.70554894 -0.3071814 -0.7564105 -0.46590275 -0.42464027
-0.40637007 -0.5595241 -0.368408 -0.389306 -0.48288482 -0.34096208 -0.72911364 -0.13528384
-0.50670826 -0.24767023 -0.32167792 -0.6805703 -0.4531305 -0.9180665 0.04872739 -0.1084403
-0.8180288 -0.23733878 -0.5069828 -0.17310666 -0.46195528 -0.27074525 -0.7103628 -0.14439002
-0.3556147 -0.17049593 -0.33950838 -0.5068175 -0.36506325 -0.5341107 -0.30946392 -0.24533746
-0.8200832 -0.50549495 -0.46909297 -0.09883523 -0.47169596 -0.31397876 -0.32706442 -0.6346767
-0.21607257 -0.4982095 -0.37128547 -0.060543045 -0.4958142 -0.52323186 -0.29861122 -0.46098763
00000000: aca3 9cbe 28dc c4be d42c dabe 1283 14bf
00000010: bcfc 0abf c93a 89be 9537 3cbe 45c7 d5be
00000020: 3f11 26bf 8247 75be 2563 6fbe db9e 34bf
00000030: e146 9dbe 1ea4 41bf ce8a eebe 736a d9be
00000040: bd0f d0be f93c 0fbf f99f bcbe 1e53 c7be
00000050: ae3c f7be 9592 aebe 31a7 3abf d987 0abe
00000060: a2b7 01bf 449d 7dbe f8b2 a4be db39 2ebf
00000070: b900 e8be 6806 6bbf 5f96 473d f315 debd
00000080: 566a 51bf f008 73be a0c9 01bf df42 31be
00000090: 6785 ecbe 1f9f 8abe 56da 35bf fada 13be
000000a0: 2113 b6be 7c96 2ebe 0bd4 adbe cbbe 01bf
000000b0: 92e9 babe 7bbb 08bf 0e72 9ebe be39 7bbe
000000c0: f9f0 51bf 1e68 01bf f42c f0be 206a cabd
000000d0: 2282 f1be d3c1 a0be fd74 a7be 2c7a 22bf
000000e0: 2142 5dbe 5115 ffbe 2119 bebe fcfb 77bd
000000f0: 5cdb fdbe 86f2 05bf 92e3 98be 9206 ecbe

sequential/dense/MatMul f4 [64, 60]
-0.03218182 -0.023500869 -0.1011286 0.12291245 -0.16693412 -0.39101332 0.039067265 0.27074364
-0.16582727 -0.031141996 -0.12142528 -0.3016626 -0.282967 0.054690916 0.07504573 0.092884
-0.26441115 -0.015284983 0.2561346 0.2417243 0.10563977 0.15745905 0.036011904 0.09499272
-0.14129889 -0.048004486 -0.08484434 0.0017079592 0.004607936 0.17591168 -0.1098638 0.10286091
0.18197933 -0.06915794 0.033450365 0.007414854 -0.21359923 -0.15712897 0.15967588 -0.25488704
-0.121701956 0.14179768 0.38107502 0.23432182 -0.31722626 -0.020796742 -0.13675745 -0.11955144
0.09449548 0.053633153 -0.037922148 -0.022864297 0.12273798 0.05997012 -0.20117183 0.13940737
-0.08155044 -0.23544721 0.28999406 -0.013529372 -0.117400326 -0.2603234 0.28859338 0.41514975
0.08621709 0.044721387 0.17152247 0.1079415 -0.14389393 -0.14360851 -0.060494322 0.011184379
0.13578089 0.068704724 -0.04585758 -0.5203082 -0.19563559 0.467569 -0.08867155 0.1754753
-0.068904445 0.05236514 0.031259432 0.01265813 0.35614237 0.05941737 -0.14594653 0.29277453
-0.23084983 0.110676706 -0.10216434 -0.2020817 -0.08739523 -0.007354714 0.13698514 0.13030757
0.005229991 -0.14882857 0.2699728 -0.1141374 -0.124846615 0.18285924 0.1710972 0.1699566
-0.26444304 -0.2999325 -0.071033776 0.09375159 0.053228624 0.038831845 -0.20194231 -0.12007569
-0.3533322 0.016442966 -0.18626502 -0.044303633 0.027164632 0.096323244 0.1928803 0.008321031
-0.10311493 0.13313952 0.02005434 -0.012420931 -0.121337056 -0.08298052 -0.06781211 -0.08967833
0.14257708 0.018729702 0.15632518 -0.11217693 0.10896705 0.07260764 -0.07960077 0.22742304
-0.28037614 -0.5411505 -0.2643369 -0.25358173 0.09680305 -0.11077384 -0.0121216895 0.056584243
-0.19154462 -0.15832067 0.3366317 -0.026738038 -0.20540653 -0.11298526 -0.30431756 -0.063838795
0.060477152 0.11422786 0.5689152 -0.13087496 0.22088945 -0.10993371 -0.10572395 0.37234023
-0.13424814 0.07671191 0.008351108 0.37583154 0.12090881 -0.03745754 0.06375554 -0.19870119
0.024583003 -0.069735914 0.041084167 -0.015733607 -0.120059334 0.2953793 0.044706702 -0.22755149
-0.16853246 0.23349734 -0.035366427 0.19739501 -0.1387184 0.055142194 -0.015465932 -0.04615043
0.025325676 0.34416112 0.16209191 0.10144306 -0.1139305 0.09656664 0.26869124 0.4242515
-0.037473198 0.0837989 0.13818191 0.20614189 0.053660795 0.12643221 -0.23553035 -0.12181186
0.14337853 0.22102529 0.012962591 0.10524657 0.3289367 0.28767192 -0.12019618 0.21772388
0.09891657 0.13706085 0.118094556 0.24885817 -0.120674506 -0.034798954 0.19684124 0.12502277
-0.21709965 0.022538796 0.046773173 0.1375855 0.37990537 0.31880718 0.038473036 -0.15567753
-0.3543454 -0.043416537 0.078826725 -0.13682432 0.30347648 0.10188867 0.1409872 0.04558497
0.40736958 0.12175599 -0.25585794 -0.055992313 -0.0443145 0.32297114 -0.073065035 -0.2539142
-0.011963198 -0.06961377 0.0018946407 -0.20107645 -0.21744062 -0.08138915 -0.051977433 -0.10463976
-0.07010633 0.06483369 0.085596256 -0.12920529 -0.28645644 -0.14032769 0.06491716 0.034510944
00000000: 16d1 03bd e584 c0bc 831c cfbd 86b9 fb3d
00000010: c7f0 2abe e632 c8be ff04 203d e99e 8a3e
00000020: a0ce 29be 801d ffbc d1ad f8bd 8573 9abe
00000030: 0de1 90be 9503 603d 93b1 993d f739 be3d
00000040: e660 87be de6d 7abc 1324 833e 9386 773e
00000050: aa59 d83d f23c 213e 3881 133d 8b8b c23d
00000060: a8b0 10be 5aa0 44bd dfc2 adbd 9add df3a
00000070: 2bfe 963b 3122 343e 4600 e1bd bea8 d23d
00000080: ca58 3a3e aea2 8dbd 4003 093d 4ef8 f23b
00000090: c2b9 5abe 6be6 20be 1382 233e 8e80 82be
000000a0: e03e f9bd 6933 113e 441c c33e 0ff2 6f3e
000000b0: 7b6b a2be ee5d aabc 250a 0cbe 63d7 f4bd
000000c0: d986 c13d 70ae 5b3d 4154 1bbd e84d bbbc
000000d0: 0d5e fb3d 3ba3 753d fdff 4dbe cec0 0e3e
000000e0: eb03 a7bd 1319 71be 1a7a 943e 4daa 5dbc
000000f0: 956f f0bd 1c49 85be 83c2 933e 828e d43e
00000100: 9692 b03d c62d 373d 96a3 2f3e 6f10 dd3d
00000110: ee58 13be 1c0e 13be e5c8 77bd b03e 373c
00000120: 250a 0b3e 10b5 8c3d 28d5 3bbd eb32 05bf
00000130: b254 48be 3465 ef3e 6e99 b5bd ccaf 333e
00000140: c61d 8dbd d47c 563d e409 003d 0c64 4f3c
00000150: 4b58 b63e a15f 733d 0273 15be 8be6 953e
00000160: e663 6cbe 78aa e23d 8a3b d1bd 81ee 4ebe
00000170: 45fc b2bd d0ff f0bb d545 0c3e 596f 053e
00000180: 5860 ab3b 8466 18be e039 8a3e dfc0 e9bd
00000190: 95af ffbd 743f 3b3e 1b34 2f3e 1a09 2e3e
000001a0: 1465 87be c190 99be 287a 91bd d500 c03d
000001b0: 4206 5a3d 240e 1f3d f7c9 4ebe 3eea f5bd
000001c0: f5e7 b4be 66b3 863c 42bc 3ebe ba77 35bd
000001d0: 5d88 de3c 1f45 c53d 6a82 453e ef54 083c
000001e0: ec2d d3bd ba55 083e 0049 a43c 2981 4bbc
000001f0: 907f f8bd b1f1 a9bd 13e1 8abd 46a9 b7bd
00000200: baff 113e 086f 993c b513 203e 05bd e5bd
00000210: 1e2a df3d 50b3 943d ba05 a3bd 96e1 683e
00000220: 768d 8fbe d788 0abf 2b57 87be 77d5 81be
00000230: ad40 c63d 65dd e2bd 0d9a 46bc e1c4 673d
00000240: 4624 44be d01e 22be fd5a ac3e bb09 dbbc
00000250: 1756 52be d164 e7bd 83cf 9bbe eabd 82bd
00000260: e4b6 773d 4cf0 e93d 6da4 113f 1604 06be
00000270: d830 623e ed24 e1bd cc85 d8bd 61a3 be3e
00000280: 5878 09be 221b 9d3d 16d3 083c fe6c c03e
00000290: 0a9f f73d 146d 19bd 4492 823d 5378 4bbe
000002a0: 4b62 c93c b4d1 8ebd df47 283d c4e3 80bc
000002b0: abe1 f5bd f53b 973e 601e 373d 4203 69be
000002c0: c693 2cbe ed19 6f3e 63dc 10bd eb21 4a3e
000002d0: 320c 0ebe c8dc 613d d264 7dbc 3c08 3dbd
000002e0: cb77 cf3c e335 b03e 6cfb 253e 61c1 cf3d
000002f0: 6554 e9bd bbc4 c53d e691 893e 7e37 d93e
00000300: 7f7d 19bd c29e ab3d 8f7f 0d3e dc16 533e
00000310: 6ccb 5b3d 7277 013e de2e 71be 7f78 f9bd
00000320: d2d1 123e 7454 623e 0c61 543c 848b d73d
00000330: 646a a83e bc49 933e 6a29 f6bd 02f3 5e3e
00000340: c594 ca3d ae59 0c3e 8fdb f13d add4 7e3e
00000350: 3224 f7bd 5989 0ebd c090 493e f805 003e
00000360: 5f4f 5ebe 48a3 b83c 3a95 3f3d 37e3 0c3e
00000370: f582 c23e b23a a33e e795 1d3d ee69 1fbe
00000380: c36c b5be 8ad5 31bd e86f a13d ad1b 0cbe
00000390: 4561 9b3e 02ab d03d f35e 103e 4eb7 3a3d
000003a0: bf92 d03e 345b f93d d0ff 82be 3258 65bd
000003b0: 1f83 35bd 795c a53e 1fa3 95bd 0b01 82be
000003c0: 4a01 44bc aa91 8ebd 9855 f83a fce6 4dbe
000003d0: c1a8 5ebe 5baf a6bd 4ae6 54bd 5f4d d6bd
000003e0: e893 8fbd 87c7 843d 174d af3d 644e 04be
000003f0: 6baa 92be 10b2 0fbe 4af3 843d 595b 0d3d

sequential/dense_1/MatMul f4 [64, 64]
0.13230218 0.21269104 0.22553957 0.10581042 -0.10499157 -0.38399813 -0.15184158 0.29977274
-0.3934402 -0.13844515 -0.122592166 -0.022381034 -0.79714227 -0.18994145 0.10889745 -0.0397327
-0.083826 0.22535029 -0.24945033 -0.20322096 -0.22892077 -0.3996071 -0.115296334 -0.10644627
0.53862315 0.057859097 0.26445508 0.111873254 -0.14195995 -0.22352405 0.21474722 -0.07166646
0.35401338 -0.19943196 -0.09165268 -0.22886516 -0.29921675 0.002636816 0.3036293 -0.413704
-0.15899909 0.16096166 0.25561717 -0.12860768 -0.18828228 -0.5662229 -0.025813647 -0.054460045
-0.10104607 -0.44818005 0.16202198 0.28348726 0.19055533 -0.2770126 0.17576875 -0.1830634
0.08156414 0.16530608 -0.1436344 -0.1676063 -0.14639692 -0.47749114 -0.40115327 -0.5043553
-0.22803254 -0.10270513 0.19842674 -0.1957738 0.29071948 0.14943816 0.019934366 0.19146384
-0.10778719 0.10683838 0.05086429 0.30282155 0.26009387 0.17969278 -0.17292862 0.0048641786
-0.14685147 -0.039221562 -0.10429825 -0.41007885 0.2733447 -0.032570936 -0.30896828 -0.04093426
0.103826955 -0.16784313 0.02253542 0.14994186 0.03193478 -0.17522024 0.012316062 -0.098243065
-0.038078573 -0.083927095 -0.34543008 -0.012727547 -0.093337625 0.10818024 -0.17907405 -0.09570504
0.21997382 -0.2412337 0.07747567 0.24586281 -0.11148923 -0.12367813 -0.15470397 0.09311075
0.017276712 -0.122010306 -0.06702609 -0.24946856 -0.38641408 0.19856751 0.2933309 -0.013812572
-0.07607101 -0.017454797 -0.11353946 -0.14591546 -0.07777414 0.009900849 -0.25695226 0.07776662
0.10712717 0.10547026 0.31700385 0.2531061 -0.10728201 0.20834245 -0.084008686 -0.21099041
-0.08440664 0.029245537 -0.16433012 0.27228105 -0.3545052 -0.003257586 -0.13721201 0.20002288
-0.06255054 0.3157186 0.1180899 0.21481942 -0.033817586 -0.014431291 0.085861854 0.06683511
0.13839316 0.15934853 -0.15907335 -0.28796953 0.07304653 0.4116304 0.17127839 -0.004615788
-0.0342299 0.005978364 -0.08365898 -0.20936741 0.05418327 -0.15120128 -0.11063008 0.18046635
-0.070773944 0.106344685 -0.07729105 0.0965003 0.20465608 -0.24371389 -0.4216946 -0.037478663
-0.035334885 -0.02964546 -0.16303873 0.03141786 -0.3131653 0.20606907 -0.22032744 -0.11055057
0.19776471 0.36409566 0.10314228 0.17669913 0.13357714 0.10871152 0.04242213 -0.28019065
-0.24804388 0.042173147 -0.25231844 0.01999929 -0.41089293 0.08013622 0.17427534 -0.24244353
-0.29209924 -0.08735252 -0.18517424 0.11270655 0.033883452 -0.74911696 -0.0036318316 -0.03904639
-0.012511313 0.025614822 -0.11728162 0.25550193 -0.18232957 0.21771836 -0.31430128 0.07694153
0.005575555 -0.14593035 0.16932186 0.08615957 -0.027376555 -0.33702496 -0.12556434 0.2989014
-0.23785345 -0.48936063 -0.4154208 0.35346916 -0.13800564 0.30849823 -0.2545228 -0.31644368
0.20073035 0.27832425 -0.11918299 0.14105389 0.28120723 0.24783792 -0.029749736 0.023351338
0.17343134 0.078552894 0.16608629 0.12831129 0.13855325 0.04088736 0.08014762 0.14628258
-0.019680273 0.13760549 -0.12908098 -0.1539354 -0.43954813 -0.52161634 -0.06255167 0.15074843
00000000: 397a 073e aecb 593e d8f3 663e 22b3 d83d
00000010: d205 d7bd 679b c4be 5c7c 1bbe d07b 993e
00000020: fe70 c9be 91c4 0dbe 9a11 fbbd 6e58 b7bc
00000030: 8411 4cbf 0380 42be a005 df3d c1be 22bd
00000040: f7ac abbd 3ac2 663e e86f 7fbe 2819 50be
00000050: 356a 6abe 4d99 ccbe 7c20 ecbd 8100 dabd
00000060: 35e3 093f a9fd 6c3d a866 873e ce1d e53d
00000070: f35d 11be 7de3 64be b2e6 5b3e ddc5 92bd
00000080: 3e41 b53e e437 4cbe 66b4 bbbd a15b 6abe
00000090: f032 99be 6ece 2c3b 4d75 9b3e 03d1 d3be
000000a0: a8d0 22be 22d3 243e 41e0 823e bbb1 03be
000000b0: 12cd 40be fcf3 10bf 2477 d3bc 7f11 5fbd
000000c0: 3ef1 cebd db77 e5be 17e9 253e 3e25 913e
000000d0: f020 433e 98d4 8dbe b9fc 333e f974 3bbe
000000e0: 1a0b a73d ff45 293e e514 13be fca0 2bbe
000000f0: 13e9 15be b879 f4be f663 cdbe 6e1d 01bf
00000100: 5d81 69be 1157 d2bd 6130 4b3e ed78 48be
00000110: 2fd9 943e 5106 193e 654d a33c 190f 443e
00000120: 88bf dcbd 15ce da3d 1357 503d 6d0b 9b3e
00000130: 062b 853e 6201 383e 3314 31be b063 9f3b
00000140: 3b60 16be caa6 20bd 529a d5bd dbf5 d1be
00000150: d6f3 8b3e 1a69 05bd 1731 9ebe afaa 27bd
00000160: 3aa3 d43d 12df 2bbe 339c b83c 5c8a 193e
00000170: 0bce 023d ef6c 33be 4fc9 493c a933 c9bd
00000180: 47f8 1bbd f8e1 abbd 36dc b0be 3487 50bc
00000190: cc27 bfbd 9a8d dd3d 305f 37be 0101 c4bd
000001a0: d140 613e f805 77be 90ab 9e3d 76c3 7b3e
000001b0: 7754 e4bd f64a fdbd b86a 1ebe d9b0 be3d
000001c0: e487 8d3c 8ae0 f9bd fa44 89bd b074 7fbe
000001d0: 11d8 c5be 4855 4b3e 782f 963e 204e 62bc
000001e0: 1ecb 9bbd 5dfd 8ebc 6087 e8bd dd6a 15be
000001f0: 0c48 9fbd 2c37 223c 3f8f 83be 1b44 9f3d
00000200: 7d65 db3d cb00 d83d 544e a23e 1f97 813e
00000210: acb6 dbbd b957 553e bf0c acbd df0d 58be
00000220: 63dd acbd 5694 ef3c 2846 28be 6c68 8b3e
00000230: b581 b5be 397d 55bb 4e81 0cbe ccd2 4c3e
00000240: 7f1a 80bd dea5 a13e 1ed9 f13d 9ff9 5b3e
00000250: 4f84 0abd 3971 6cbc 57d8 af3d d9e0 883d
00000260: f0b6 0d3e 432c 233e 20e4 22be be70 93be
00000270: 6b99 953d 38c1 d23e 9a63 2f3e 0940 97bb
00000280: a734 0cbd 27e6 c33b 6655 abbd 6964 56be
00000290: 47ef 5d3d 82d4 1abe 0692 e2bd 2ccc 383e
000002a0: eef1 90bd 3ecb d93d c54a 9ebd f3a1 c53d
000002b0: 5d91 513e 2290 79be 5be8 d7be 3a83 19bd
000002c0: 50bb 10bd 09db f2bc a0f3 26be 04b0 003d
000002d0: 3457 a0be c503 533e 849d 61be 5668 e2bd
000002e0: d582 4a3e bf6a ba3e 423c d33d 9ef0 343e
000002f0: 72c8 083e 25a4 de3d d4c2 2d3d 2675 8fbe
00000300: 37ff 7dbe c0bd 2c3d e22f 81be 8dd5 a33c
00000310: 8f60 d2be 751e a43d 3c75 323e 1e43 78be
00000320: 088e 95be e1e5 b2bd 519e 3dbe b1d2 e63d
00000330: 60c9 0a3d 21c6 3fbf 0604 6ebb 1cef 1fbd
00000340: 40fc 4cbc 2dd6 d13c 5931 f0bd 26d1 823e
00000350: 9ab4 3abe 90f1 5e3e 19ec a0be 8593 9d3d
00000360: 25b3 b63b c46e 15be b662 2d3e 6e74 b03d
00000370: cc44 e0bc 898e acbe f093 00be 9b09 993e
00000380: db8f 73be 7a8d fabe 09b2 d4be e9f9 b43e
00000390: 5a51 0dbe 7bf3 9d3e d050 82be e804 a2be
000003a0: 428c 4d3e 8480 8e3e 3616 f4bd 6e70 103e
000003b0: 65fa 8f3e 39c9 7d3e b8b5 f3bc 4e4b bf3c
000003c0: fc97 313e 57e0 a03d 8612 2a3e 0964 033e
000003d0: e7e0 0d3e 8179 273d 6f24 a43d 1acb 153e
000003e0: 8638 a1bc 74e8 0c3e ce2d 04be 3ea1 1dbe
000003f0: 740c e1be a688 05bf 171b 80bd cc5d 1a3e

sequential/dense_2/MatMul f4 [16, 64]
-0.3768419 0.09307569 0.005979285 -0.038068134 0.13071437 0.026687644 0.21347478 -0.06988514
-0.1476865 -0.06154431 -0.086084396 -0.10067341 -0.17754136 -0.101501204 0.05877228 -0.077748984
0.19159862 -0.55770236 -0.32490283 0.25038126 -0.4488901 -0.15416333 -0.10955248 0.07354838
-0.09870206 -0.12023117 -0.34345123 0.23364289 0.10063472 0.15341145 -0.025824677 0.06381111
-0.3578928 -0.13095433 0.07595214 -0.15434654 0.033541363 -0.48080254 -0.16885804 0.2359635
-0.23374431 0.49940243 -0.26610872 0.34705734 -0.06127877 -0.12728919 0.28686932 -0.119793236
-0.016950285 0.15333666 0.19264647 0.1221249 -0.105763756 -0.25329652 -0.044408582 0.34507138
-0.25014728 0.06203535 -0.123109035 -0.08812929 -0.1804664 -0.38904068 -0.17522286 -0.24536505
-0.42655656 -0.24751164 0.14161271 0.37888837 0.25717658 -0.039506987 -0.31780967 -0.230671
-0.40690872 -0.28985527 0.22963 0.23679371 -0.37148866 -0.2326512 0.20295519 0.24142702
0.050183143 0.12749575 -0.03090826 0.0036002647 0.066220745 -0.2662343 -0.21471334 -0.1544575
-0.35477147 0.1450248 0.28572685 0.18095042 -0.4393509 -0.41075033 -0.19510753 -0.30750516
0.25707412 -0.033124853 -0.15009798 -0.08925681 -0.09455128 -0.06712454 -0.3295822 0.015240804
-0.27521318 -0.3444023 -0.19128148 -0.12439517 0.19285542 -0.23890741 -0.018997965 -0.1226619
-0.011496064 0.15251054 0.114421494 -0.21277758 -0.19474097 -0.2485874 0.5751626 0.05134903
-0.57515895 0.052713774 -0.04917708 0.2492847 -0.3046145 -0.3293724 0.07904118 -0.15377298
-0.10073705 0.007270692 -0.28840256 -0.20202324 0.025841616 -0.28953886 0.012767711 0.105119735
-0.06551513 -0.043247078 0.02929855 -0.10817378 -0.2560785 0.16587946 -0.08952119 -0.06454598
0.08069158 -0.47226763 -0.20506668 -0.044103414 0.21250358 -0.07924985 0.3020644 -0.0605749
0.47316307 0.46483955 0.10403389 0.19513965 -0.1196641 -0.17715949 -0.24444538 0.17113209
-0.23951682 -0.007935807 -0.08363306 0.64033836 -0.10988643 -0.28194007 -0.35492033 0.2604384
-0.2709007 -0.30664885 -0.14528233 -0.07481892 -0.35847136 0.09424806 -0.0168858 0.16375318
0.016690508 -0.07028783 0.25267193 0.24118672 -0.10353215 -0.28141928 -0.41525397 -0.10723072
-0.07116653 -0.09762109 -0.094096996 -0.28111413 -0.2338292 -0.3932738 0.068428256 -0.38638106
-0.31775197 -0.06347572 -0.07217965 -0.10063259 -0.06969983 0.30317384 -0.11476105 -0.18414252
-0.07450984 -0.2390111 0.023050591 -0.2193334 -0.043978356 -0.014232579 -0.47669983 -0.17166984
-0.48948395 0.03148432 -0.40496808 -0.043275353 0.16507678 0.023127796 -0.4334832 0.20694864
-0.30663246 -0.11896898 -0.01842857 -0.17644921 -0.39075404 -0.23905489 -0.25187412 -0.016661434
0.17434403 0.08539586 0.29023033 -0.38149062 0.32270673 -0.0948307 -0.15955621 0.016136026
-0.32087457 0.018280558 -0.24414511 0.23137762 -0.08525266 0.43540263 0.22044079 0.31910133
0.29594707 0.20574443 0.18370472 -0.3831381 -0.1555259 -0.38296765 -0.5052666 -0.2580237
-0.3716858 -0.20482092 -0.2830912 -0.333457 -0.1404136 -0.04153482 0.6012403 -0.19455884
00000000: 6cf1 c0be 789e be3d e1ed c33b 55ed 1bbd
00000010: fdd9 053e 0ca0 da3c 2299 5a3e f11f 8fbd
00000020: 213b 17be e315 7cbd 044d b0bd dc2d cebd
00000030: 67cd 35be dddf cfbd 34bb 703d dc3a 9fbd
00000040: 6e32 443e 95c5 0ebf aa59 a6be f931 803e
00000050: ecd4 e5be fedc 1dbe 0d5d e0bd 88a0 963d
00000060: 4e24 cabd c23b f6bd d7d8 afbe 1540 6f3e
00000070: 9319 ce3d e417 1d3e 468e d3bc 66af 823d
00000080: ba3d b7be e418 06be cc8c 9b3d 050d 1ebe
00000090: ab62 093d c02b f6be 1fe9 2cbe 6aa0 713e
000000a0: ab5a 6fbe adb1 ff3e 673f 88be 80b1 b13e
000000b0: 73ff 7abd 1958 02be 89e0 923e 2856 f5bd
000000c0: 53db 8abc 4904 1d3e 1e45 453e 9f1c fa3d
000000d0: ab9a d8bd 15b0 81be c6e5 35bd 32ad b03e
000000e0: 4e13 80be c718 7e3d 9720 fcbd 217d b4bd
000000f0: 2fcc 38be 5730 c7be 9f6d 33be fa40 7bbe
00000100: 9f65 dabe b173 7dbe ec02 113e a8fd c13e
00000110: a6ac 833e 14d2 21bd f3b7 a2be 0535 6cbe
00000120: 5756 d0be e967 94be 2024 6b3e 0d7a 723e
00000130: c333 bebe 1e3c 6ebe 7cd3 4f3e a538 773e
00000140: d78c 4d3d 3f8e 023e 5233 fdbc 6bf2 6b3b
00000150: be9e 873d dd4f 88be d0dd 5bbe 1b2a 1ebe
00000160: 9ba4 b5be 6281 143e ca4a 923e 114b 393e
00000170: 9af2 e0be de4d d2be 45ca 47be 5171 9dbe
00000180: 389f 833e edad 07bd 49b3 19be 46cc b6bd
00000190: 1aa4 c1bd 9778 89bd 00bf a8be 91b4 793c
000001a0: bee8 8cbe 8055 b0be 4bdf 43be e5c2 febd
000001b0: e47b 453e 25a4 74be 9fa1 9bbc 2a36 fbbd
000001c0: fd59 3cbc b92b 1c3e d155 ea3d 5ee2 59be
000001d0: 2d6a 47be b28d 7ebe db3d 133f 5c53 523d
000001e0: 9e3d 13bf 66ea 573d e86d 49bd 7d44 7f3e
000001f0: 6ff6 9bbe 80a3 a8be 58e0 a13d aa76 1dbe
00000200: 3a4f cebd fc3e ee3b 80a9 93be 2edf 4ebe
00000210: ccb1 d33c 703e 94be a92f 513c 0449 d73d
00000220: cc2c 86bd d923 31bd 8303 f03c 378a ddbd
00000230: b91c 83be 4edc 293e e356 b7bd af30 84bd
00000240: a141 a53d 10cd f1be 00fd 51be c8a5 34bd
00000250: 8a9a 593e bf4d a2bd 2fa8 9a3e 631d 78bd
00000260: 6e42 f23e 73ff ed3e b80f d53d b0d2 473e
00000270: 7412 f5bd 4c69 35be e44f 7abe 403d 2f3e
00000280: e643 75be 3005 02bc cf47 abbd 37ed 233f
00000290: 230c e1bd 735a 90be 1eb8 b5be 2f58 853e
000002a0: 7fb3 8abe 1401 9dbe e4c4 14be a93a 99bd
000002b0: 8f89 b7be 2005 c13d 1754 8abc eaae 273e
000002c0: 88ba 883c 11f3 8fbd 375e 813e a7f9 763e
000002d0: aa08 d4bd 3016 90be 2b9c d4be c89b dbbd
000002e0: c2bf 91bd 91ed c7bd edb5 c0bd 31ee 8fbe
000002f0: ec70 6fbe 2f5b c9be 1d24 8c3d bdd3 c5be
00000300: 63b0 a2be 8fff 81bd edd2 93bd 7618 cebd
00000310: c9be 8ebd 9a39 9b3e d707 ebbd db8f 3cbe
00000320: 9d98 98bd 53bf 74be 98d4 bc3c ef98 60be
00000330: a622 34bd c32f 69bc 0012 f4be 38ca 2fbe
00000340: a49d fabe b4f5 003d fa57 cfbe 7f41 31bd
00000350: e309 293e 8176 bd3c 83f1 ddbe 58ea 533e
00000360: eefe 9cbe 02a6 f3bd 83f7 96bc 1aaf 34be
00000370: ea10 c8be ceca 74be a5f5 80be 8f7d 88bc
00000380: 3e87 323e 06e4 ae3d 1299 943e bd52 c3be
00000390: d139 a53e 9936 c2bd b462 23be b32f 843c
000003a0: ac49 a4be 1cc1 953c 2d01 7abe 41ee 6c3e
000003b0: f298 aebd 18ed de3e 3bbb 613e 4061 a33e
000003c0: 6086 973e abae 523e 171d 3c3e ad2a c4be
000003d0: 2e42 1fbe 5614 c4be 2759 01bf af1b 84be
000003e0: 9a4d bebe 93bc 51be 54f1 90be e0ba aabe
000003f0: 95c8 0fbe 6a20 2abd e2ea 193f 6f3a 47be
